ffn_w2.npy (npy, 1728 bytes, 1 tensors)

array f8 [20, 10]
00000000: 968e 6715 0fe9 653f 81d9 46c1 5f21 a6bf
00000010: 158c 0d67 8cab 943f 9b26 9a5a aefd 89bf
00000020: e7ff f9db 45b3 583f 38cc b1f6 1ab3 923f
00000030: 2cd0 59f4 5e69 833f bd37 a23e ba7a 70bf
00000040: d1d2 bf53 f5ec 823f 83dd bb12 f968 7f3f
00000050: 10ea 7561 1f18 993f 7109 ad4a eaeb 823f
00000060: d92c 2f0c acff 40bf f619 a913 4810 8f3f
00000070: 703d d2ea 1c7a 8cbf 5cea 0137 3788 a6bf
00000080: aaed b8fa c222 9a3f 3a0a e84d ec57 7e3f
00000090: 2ca4 7cdd f6ac a5bf 5a01 4704 37df a5bf
000000a0: ae3b 31f2 d68e 31bf 694d 4928 72d9 92bf
000000b0: 13c2 b78b 5d18 a6bf 70dd 7702 9eed 8abf
000000c0: 40f3 9ad9 79a5 a73f d81f 2dc2 16be 713f
000000d0: 4ea1 9b8b 2527 8d3f 580f 8f30 9793 8cbf
000000e0: ca14 5980 9884 933f 8847 2b5b 0a49 903f
000000f0: dc83 f2d8 f05c 83bf 1154 1b45 8b08 98bf
00000100: c496 36c7 3ee3 913f c162 a067 b710 76bf
00000110: 8020 290b 59c6 91bf 576f cf6d 0590 963f
00000120: 4961 25ea 39d4 57bf 09ce 292a 9016 8fbf
00000130: 61f1 886c f966 76bf 33da 9731 8c3e 75bf
00000140: 97b0 2abc d48c 9dbf d298 ebcb 4166 99bf
00000150: 558f c555 e376 a1bf 2797 ad2f 1cb5 4f3f
00000160: a374 2579 06cb 9bbf 16f3 2ca2 0727 5c3f
00000170: 43c7 facb 571f 5ebf d19b 2eac b895 7d3f
00000180: a106 da2c e69f 9cbf 4d62 361f 2126 4d3f
00000190: 313f 65ac b9db 98bf 909b 6f7a 5f20 993f
000001a0: 4169 c263 c451 79bf 97bb 8cc7 3d36 a03f
000001b0: 1c4a cfb0 11e6 60bf c5ba 5c55 027d a23f
000001c0: 43d1 d318 3f4c 8e3f 0732 10fd c3d4 93bf
000001d0: 475c b745 2fba 6cbf 83ec 4811 163d 7dbf
000001e0: 4c9e 0fd0 3b90 9e3f c778 b1fa e19d 9c3f
000001f0: 0167 52f1 fb72 58bf 68c8 f8fd be37 99bf
00000200: 9ac9 625f c46f 81bf 238c 4312 ec71 82bf
00000210: 057a 6574 a972 9c3f 0449 8ec3 c651 89bf
00000220: ff07 f4d0 0a28 9e3f dc6b cc90 0eee 8abf
00000230: 96be 7b77 2c33 8ebf 4cd5 d1c9 0652 703f
00000240: 3875 1277 6a3a 99bf 75c8 cd31 95fa 963f
00000250: 1a96 0d60 7112 8bbf e835 a7bf 0f0a 44bf
00000260: d32d d95b 1113 9bbf 6c62 0c9d 30ca afbf
00000270: e7aa 6bcd 27d1 453f 969a 831b 768e 98bf
00000280: 8e2d b921 4cee 703f 6e78 54f2 0af2 9dbf
00000290: 10d1 f6e7 3ecc 913f 1167 11d2 d0ff 283f
000002a0: 6c9b e600 c4d2 913f 20e7 cfb4 989b 94bf
000002b0: 93e7 ed8f 71d5 48bf e4f9 fa68 ca0a 7cbf
000002c0: f69f 9307 193b 9abf 4aaa 5623 833d a5bf
000002d0: e475 7413 a43c 863f 018d ac17 1e3b 153f
000002e0: 0d5f 0c70 b9a6 743f 5eb9 140a e5b0 93bf
000002f0: 7bb2 25eb 28b8 8fbf 3037 c0db 2507 9ebf
00000300: af03 6a0a c3c4 903f 931c 19b6 a75c 703f
00000310: ff26 8c2b 69bb 9d3f 097a 314f 2a1d a4bf
00000320: 1edc d1e3 d47c 88bf 2d66 a00c 750b a2bf
00000330: a984 6ca0 ab76 9e3f a9c3 d625 39f3 83bf
00000340: 88b1 9e03 62ad 58bf d996 75d3 b216 913f
00000350: 5f9f 343d 6a23 84bf 0083 32e8 986f 77bf
00000360: 0c1a ea66 e166 8dbf cc81 6aa3 423f 6fbf
00000370: 1ac0 d49d 0288 81bf a101 272f 8035 833f
00000380: 203f 0497 d038 6ebf 5605 61d3 d91b 993f
00000390: 1e74 dbe0 e9bb a8bf 5e55 c0ae eb07 88bf
000003a0: 8366 d7b7 6409 54bf 9812 f21f 8bfb 8d3f
000003b0: 1fd8 30d2 6a9b 92bf 6774 1447 05b9 54bf
000003c0: f843 8f3c b142 9dbf 4046 8f49 8a37 92bf
000003d0: 8848 3e2c 4880 993f 4954 b00f 757a 863f
000003e0: a878 aaac c6bf 8ebf 4324 1bcb 1a12 a5bf
000003f0: 6e7a 6a69 b4f6 833f bfab 2e6d 2da5 70bf
00000400: 251a fd3f 123d 85bf d32e c64d 32b6 a8bf
00000410: 432d 614c dc32 afbf 9edf 6b12 21c4 87bf
00000420: cd6b a99d 709e 7bbf 4ab4 bcc5 b7fe a53f
00000430: d206 a46a 14f7 953f e772 1f03 920d 5d3f
00000440: 1a97 be35 f307 703f 3e42 2759 85e6 993f
00000450: f1b8 d1ca fd5e 8e3f ce17 6d0b 18f6 97bf
00000460: f59e 442e 385b 653f ea20 4242 293b ab3f
00000470: 7359 0c7e 58e5 7fbf f87a a69a f96a 5dbf
00000480: 560e 3f32 4e7f 8a3f b7a1 7f84 1cd2 90bf
00000490: 56a4 5fd9 fe0e 8cbf c18d 4906 eab6 a03f
000004a0: fb04 7c49 217a 92bf bef4 665f c31b a23f
000004b0: 6f13 07fd af5a 87bf 88f5 efcd 5292 6d3f
000004c0: 7316 b710 eb75 9ebf 9be7 db3c 207b 71bf
000004d0: 6e61 5707 a026 a23f 4aa5 bae2 6d0d 9d3f
000004e0: 7f49 0f69 21d7 5cbf 1272 c8ca ce70 8c3f
000004f0: c439 8893 f0c5 8ebf 5cd0 0461 876c 453f
00000500: 6c0a 190b 4fa9 89bf 685c 003c d1de 7d3f
00000510: f5bc ca41 9e90 8a3f 150e 31cf 15b0 7f3f
00000520: 7a95 b006 9d7c 6dbf 4f20 3c76 1ae0 97bf
00000530: 3532 9dcd eb1b 7b3f 163e 272a e1bd 743f
00000540: b565 fafb ecad 8bbf 85d2 86bf 0c62 873f
00000550: eec8 6ab1 2d70 9c3f a86a d652 0f7c 9b3f
00000560: ae7b 41a3 e702 98bf ec35 9862 f422 843f
00000570: 4105 a0b8 ce94 71bf 2ac0 3d9e 86d6 7c3f
00000580: 5a04 52ac b8bf 803f 78a1 8dc7 8ed7 99bf
00000590: 84dc 6cef 9eae 6dbf baf4 17b1 3315 923f
000005a0: 7c96 6a9c d015 7f3f cdea 5910 586e 93bf
000005b0: 6982 a468 d65e 973f fa1e 5c5f b4d1 993f
000005c0: 0937 74b2 6a5e a93f ab26 5850 350e 843f
000005d0: d04c efdb 086c 593f 2735 d841 ab3a 55bf
000005e0: bf4a 5b24 b3db 35bf d2f9 7631 950b 89bf
000005f0: feec dfab 2d5d a1bf d6e0 c059 e245 633f
00000600: c05d b557 3538 53bf de57 cc01 d79c a03f
00000610: 8f83 4ac3 0da0 823f 0f43 44a4 aaf0 85bf
00000620: 579f 4272 29b1 763f e1b1 87ee 8837 90bf
00000630: 442e 8438 a9f3 5ebf 07cc e277 7a2b 8a3f
0.0026746077157769428 -0.04322337374053387 0.020185655393458363 -0.012690889491995086 0.0015075857371868952 0.018261357600249023 0.00947832282256663 -0.004023292082036831
0.009241024607015732 0.007668469373803946 0.024506082843325727 0.009239035037926087 -0.0005187597347399389 0.015167773342125362 -0.013904786983657685 -0.04400799318769508
0.02552323012626593 0.007408068717725197 -0.042335238015148796 -0.04271861960615082 -0.0002679133196509764 -0.018407615383990193 -0.0431546433500253 -0.013148531389545609
0.04618435651125319 0.0043316735271403325 0.0142348225812873 -0.013953381699941467 0.019060499986399283 0.015903627218740307 -0.009454614277560162 -0.023470092862073303
0.0174684342470275 -0.005387035775151262 -0.01735819941157546 0.02203377230385625 -0.0014544072697245272 -0.01517975453064137 -0.005469297706948901 -0.0051866031949346246
-0.028857540116107385 -0.02480414206629506 -0.0341101686670117 0.0009676349285256722 -0.02714166750353243 0.0017182898088343216 -0.0018385274305896127 0.007222863557138263
-0.02795371674301939 0.0008895551422255038 -0.02427568545073128 0.024537555549524692 -0.006181494853218007 0.03166382847700005 -0.0020628304978143174 0.036109993858521906
0.01479386610524414 -0.019366323776965923 -0.003506748513000288 -0.007138334466215149 0.029847082685505108 0.02794602482423938 -0.001492258107907707 -0.024626716853341085
-0.008513960038133917 -0.009006351764076886 0.027781150559684793 -0.012363007395638899 0.029449624064916687 -0.013149369996929332 -0.014746043583243645 0.0039844765825497
-0.024636901395401284 0.022440272488389163 -0.013218770736510389 -0.0006115509889298961 -0.0264399254140651 -0.06208946148962444 0.0006658024165891702 -0.02398094695026972
0.004133508100106721 -0.02924363235535348 0.0173806981162708 0.00019072937087365923 0.017405569605809232 -0.020124803577323935 -0.0007578663352056806 -0.006846228279469877
-0.02561606510872135 -0.04148492628458607 0.010857850879399451 8.098956270123984e-05 0.005041813245746385 -0.019229487171452113 -0.015487975765347209 -0.02932414201500605
0.01637558699667679 0.00399461281046522 0.0290352280453936 -0.039285013358256356 -0.011956847383983112 -0.03524366168148805 0.029749566713807827 -0.009741255252125063
-0.001506181446965989 0.016688150555089407 -0.00983317374500786 -0.005721661847162052 -0.014356385186386177 -0.0038143445520548488 -0.008560200158711995 0.00937938827417001
-0.00368920078484071 0.02452030518202738 -0.04830866689528811 -0.011733857412802248 -0.0012229426932805216 0.014639937317278126 -0.018170994833973105 -0.0012648154773338362
-0.02857472355009702 -0.017789993991590203 0.024903419208904626 0.010975756207736736 -0.015014221329064562 -0.0411537526065975 0.009747895686186694 -0.0040637754890821545
-0.010370390489368006 -0.04826504897490982 -0.060934910129243146 -0.011604555487323694 -0.0067428969437867805 0.04295896805556561 0.02145034695514065 0.0017732549572350655
0.003913831747842678 0.02529342991494076 0.014829619171191829 -0.023399711320301546 0.0026069733886692156 0.05318573888604468 -0.007787080453246597 -0.0017955243625704092
0.012938128384013908 -0.016426511370726007 -0.013700476654735432 0.032645524280066514 -0.018044014082083653 0.0353680662114839 -0.01140344134263113 0.003609811522891252
-0.029746697325910575 -0.004267812660822569 0.03545093621841287 0.02837154098839293 -0.0017602754853568157 0.013887038768239744 -0.015025977613757464 0.0006538067846464479
-0.012529962087801404 0.007292573282049998 0.012971149809656949 0.007736287300818674 -0.0035994593540801785 -0.023315823999866144 0.006618424516841294 0.005063895749529054
-0.013515330734025758 0.011417483897141931 0.027771676973039776 0.0268404383001363 -0.023448581065504896 0.009832295664661005 -0.004292304520278124 0.007040525295323655
0.008178179510880113 -0.025236349992526524 -0.003623304768008819 0.01765900391000195 0.007589163672184204 -0.018975616453171185 0.02282271398246608 0.025214021988204195
0.049548467906886336 0.009792725099959062 0.0015516363634915827 -0.0012957260545392675 -0.0003335296972696681 -0.012229123661083561 -0.03391401980476337 0.0023526593122618995
-0.0011730690883576672 0.03244659325552822 0.009094340822515949 -0.010712941301365157 0.005540048503611525 -0.01583684879180847 -0.001889148001342004 0.012778240951183418
