ffn_w2.npy (npy, 1728 bytes, 1 tensors)

array f8 [20, 10]
0	0xbf9d40cb4ce17b02	-0.02856748253577291
1	0xbf823f8e9585e476	-0.008910287798004495
2	0x3f955636fff5bfc0	0.02083669602637861
3	0xbf9812adcac383aa	-0.023508754254070098
4	0x3fa5f608b3991911	0.04289271538123008
5	0xbf850c5837c9ac9d	-0.010277451708324664
6	0xbf814c31f3234835	-0.008446111900784906
7	0x3f93dc04a7d9c041	0.01939399027327249
8	0x3f8d43d84655ba6e	0.014289559980821678
9	0xbfa078a035c0a75f	-0.03217030197295289
10	0xbf9aac6b3bd92896	-0.02604835083756337
11	0xbf4a9216e2358f23	-0.0008108722435449005
12	0xbfa00c1876dcc6a3	-0.03134228182751755
13	0x3f7a214096b1502d	0.00637936811388688
14	0xbf4af0cf9a454f25	-0.0008221639332454995
15	0xbf813719630bbdfe	-0.008405874571933755
16	0xbfa315d874678f5a	-0.037276043138062945
17	0xbf89c8fe139d6b1e	-0.0125903939949033
18	0xbf528b0d23f06480	-0.0011317852329340294
19	0xbf9e2c52a865a8e4	-0.029465953376907175
20	0xbf6d15caf265d668	-0.0035504306608185494
21	0x3f80f513cfde6afe	0.0082799480258493
22	0xbf9580b417a3a561	-0.02099877733499989
23	0x3f799f2b5ded3c09	0.006255311395604765
24	0x3f522fd85564f52d	0.0011100399620567844
25	0x3f509ba20d9c1652	0.0010136683035296867
26	0x3f5b7c474f4ba583	0.001677579534936719
27	0x3f97877df392e29a	0.022977798453868027
28	0x3f80dd83dccd99a3	0.00823500650012649
29	0x3f85561f5c836b8d	0.01041817189291352
30	0xbf8f37c5abacb5ae	-0.015243095685572108
31	0x3f87940607dcd561	0.011512801279972508
32	0xbfa1cb6b4f622f58	-0.034755090179799
33	0x3f95dfd596a43bbf	0.02136167270606015
34	0x3f90370434a79281	0.015834871019154043
35	0xbf7ef2b7e619e9ba	-0.007555693011108417
36	0xbfa856cffb2bacd9	-0.04753732625052871
37	0xbf3a6148755677fd	-0.0004025270366926346
38	0x3f9757f9d0d47022	0.022796538706742926
39	0xbf979b15b9693c78	-0.023052539292902158
40	0x3f95731a57841771	0.02094689520983856
41	0x3fa0e5b5c3247a06	0.03300254828558384
42	0x3f90566a945a7dad	0.015954652123239366
43	0x3f86fb2cc506bab8	0.011221265566601843
44	0xbf86b36f42f34a6c	-0.011084431868231458
45	0x3f7bda23cde390bc	0.006799831257215224
46	0x3f94ac2fef0f42fa	0.02018809219936466
47	0x3f8dc116fb9881c2	0.014528445771305413
48	0xbf8187f74f115363	-0.008560115910009441
49	0x3f70c7a7a55209ed	0.004096655718174064
50	0x3f975664218deb2b	0.022790493534084504
51	0x3f84a15c2ba870d4	0.010073394853911934
52	0x3f6ca7be66b31700	0.003497955205235992
53	0x3f9819d1a014ac4f	0.0235359910922564
54	0xbf72d75d9ebd21d8	-0.004599919989978628
55	0x3f7f96160098fb80	0.0077114924875435475
56	0xbf809884893d1954	-0.008103404462997212
57	0x3f9524fd9aa8c27a	0.02064892059769583
58	0xbf7246e565c62b97	-0.004462143024634899
59	0xbf992353d24992bd	-0.024548825941013364
60	0xbf9da5853ad14906	-0.028951722826897196
61	0xbf8e972977f35114	-0.014936756108376893
62	0xbf8fae246b7c9e6c	-0.015468868761288244
63	0x3fa5111504646ed1	0.041145951067134263
64	0xbf985e4b79f2bbdd	-0.023797206228376545
65	0xbf4824a02f80cfc7	-0.000736788001637561
66	0xbf8735111d88a4cc	-0.011331685746954888
67	0xbf69cbe11a5b43d4	-0.0031489750425426153
68	0xbf8130cfe3d3abe1	-0.00839388288519233
69	0xbf9a011800b1a7ea	-0.025394797365528556
70	0x3f91613b0e01de7e	0.0169724681186083
71	0x3f837d25e82d778f	0.009516044757841317
72	0xbf96a99f0ff5b749	-0.0221314290515047
73	0x3f68c1dfdfe3eed7	0.003022134070418274
74	0xbf83260588c55c32	-0.009349864231508052
75	0x3f93126768e86243	0.018624892976818918
76	0xbf8adbd3f53690e1	-0.013114601059733779
77	0xbfa00bdbe6dc3520	-0.03134047692410946
78	0x3fa481555b9c0cc3	0.040049235756691746
79	0xbf7adc4b2998af6b	-0.006557744601689434
80	0xbfa6ef5ecce2b137	-0.044795000563086544
81	0x3f9d50c9ea9da46d	0.028628497071086324
82	0xbf83a969dc73c998	-0.009600474395914202
83	0x3f4209bf362893f6	0.0005504783296755844
84	0x3f9b228c5e6aeb5a	0.02649897886542916
85	0xbf6843dbc2170076	-0.0029620449210768186
86	0x3f9f43c9204e7db7	0.03053201923068879
87	0xbf8b50c5ffa2da34	-0.01333765684499353
88	0xbf713b337a91b0a3	-0.004206849183088365
89	0xbf8b4bf2adc736db	-0.013328452995576104
90	0xbf9c5c7835cf7367	-0.02769649341995564
91	0xbf841e327c99d8dd	-0.00982322161437959
92	0x3f81169ab2d4e12b	0.008343895514017227
93	0x3f2052c6e3dbf1e1	0.00012453725678786192
94	0xbf889740bb73a9af	-0.012007241936278527
95	0x3f8b7c0ea56c3d69	0.013420214103034582
96	0x3f54803f6e938ff5	0.0012512797787218564
97	0xbfa54a7d811b291d	-0.04158394051553869
98	0x3f8d5a1adb127da4	0.014332017717889674
99	0xbf4162f417d7b427	-0.000530595003224503
100	0xbf96221518c8361a	-0.02161438907392297
101	0xbf8a87bc0e7fee5c	-0.012954205696579617
102	0x3f9242d9ecdd1fdb	0.017833142358796166
103	0xbf91590151d5cbe8	-0.01694109022123405
104	0x3f831afb0c83a470	0.009328805274394919
105	0x3f94053edc08a06a	0.01955126016596901
106	0x3fa8ee0715b2fb4e	0.04869100704080741
107	0xbf675ed708e54b46	-0.002852840413802768
108	0x3f8252020aa46ec1	0.00894548029878395
109	0xbf61f4c672afd6a4	-0.0021919132172979073
110	0xbf9b5e939484f7ed	-0.02672796815863159
111	0x3f976d428e281c34	0.022877731253199765
112	0x3fa386623e87ef97	0.03813464177434794
113	0xbf91ea583a457478	-0.01749551635417787
114	0x3f7e424f23d09152	0.007387456073989123
115	0x3f97bb1a76f4ae8b	0.023174680243001105
116	0x3f84e2cedff8ef3c	0.01019822712907336
117	0x3f538f43cd9effa8	0.001193824972219185
118	0x3f982de1b9b59eb1	0.02361252494793459
119	0xbf7135bdc3424afe	-0.004201642285027727
120	0xbf9d111827f253bf	-0.028385522306581864
121	0x3f9e617649e07b35	0.02966866327198688
122	0x3f76082c2de15dcb	0.005378887724951163
123	0x3f8f3c0c49dc2d12	0.015251251224546656
124	0x3f8516ce047cc1f5	0.010297402870123465
125	0x3f8f7d42b62bba3d	0.015375634369289343
126	0x3f06d8f1fec3123a	4.3578038317036415e-05
127	0x3f6c38909bf5de0c	0.0034449409865222654
128	0xbf9ea3cf06f9ea8c	-0.02992175560073433
129	0xbfa1a02f59f593d2	-0.03442523930679155
130	0xbf95725e2c8337e7	-0.020944091288406155
131	0x3f7fd745362d1cff	0.007773657186425752
132	0xbf7b962ad53efa6a	-0.006735007587791312
133	0x3f8b7f36e393e71d	0.013426235981103535
134	0xbf806454ab5eb5a1	-0.008003865699573622
135	0x3f9db48b7dd831ec	0.029009036594333112
136	0xbf80f27fdc6e42f9	-0.008275031008254429
137	0x3f8392d5b09d9d62	0.009557408764250656
138	0x3f7a3f29b2f01b21	0.006407893072725186
139	0xbf79f370095647b5	-0.00633567585227184
140	0xbf9a21ef08915883	-0.02552007188600004
141	0x3f9221abe7fd3ec1	0.01770657161188072
142	0xbfa01f223b6b136e	-0.0314875314266264
143	0xbf7118b6df0ed2ee	-0.00417396005734781
144	0xbfa729920650900c	-0.04523903204997745
145	0x3f894fd7e19b529b	0.012359320232840523
146	0x3f8dc01cb268bd5d	0.01452658099614606
147	0xbfa05a0308e3939c	-0.03193673594959209
148	0x3f623f360400d467	0.002227406977932267
149	0xbf9ccaf372c52c43	-0.028117946510331625
150	0xbfb01fadcaa2ad8f	-0.0629833812442284
151	0x3f7ddcf808501b89	0.007290810467572303
152	0xbf9f492176455b00	-0.030552409022983618
153	0x3f84435bd74dc866	0.009894101627399187
154	0xbf9541c68ccf5306	-0.020758726448394625
155	0x3f800b7c8a06f249	0.007834408724073276
156	0xbf9afeaa228f9eb5	-0.02636209331458757
157	0x3f98c7ec86c21e97	0.024200149273865348
158	0x3f9d72e486f8bac6	0.02875859330941457
159	0xbf8fcd514bf2c63a	-0.015528330927142443
160	0x3f95b3af2f790e0f	0.021193253777040563
161	0x3f90a6e89cfb4b09	0.016261705953023262
162	0x3f87e9880e751dbe	0.011675894681174689
163	0xbf740f63b0b41f08	-0.004897488989861427
164	0xbf6d4946a6a2fffb	-0.0035749797726509747
165	0xbf9b8094c2f6b33e	-0.02685768547023603
166	0x3f7b8cb7dd67f533	0.006725996229304076
167	0x3f89429abc6c9355	0.012334069133041284
168	0x3fa4ee1d98a92305	0.04087917793783017
169	0xbf793832948a7c49	-0.0061571098127891155
170	0xbfa158a6d15b3a9a	-0.033879483276554725
171	0xbf73b6736417efc1	-0.004812670465522418
172	0xbf92a8b0299f6a78	-0.018221619167756192
173	0xbf72caef74182729	-0.004588065495690499
174	0x3f8fd6c97239a27e	0.01554639224851084
175	0x3f63b713ed17e604	0.002406634252790198
176	0xbf91d55591f1c776	-0.017415368111364647
177	0x3f841b430a718c3a	0.009817622905933122
178	0xbf42553cedd81e49	-0.0005594775681751564
179	0x3f8506f822e74594	0.010267199101607706
180	0x3f936c6a20a83d02	0.01896825622867216
181	0xbf1f245e3cdb06c1	-0.00011879754239443441
182	0xbf937405adcca929	-0.01899727700507828
183	0x3f690f69ae3b7df2	0.0030591072153212046
184	0xbf81f6815c51c9f5	-0.008770952825419601
185	0x3f9c9339010e07cd	0.027905359925632745
186	0x3f9791d576dc9d5f	0.023017249469515885
187	0x3fa67a5e6adc2391	0.04390234999124865
188	0x3f83a4743c9dc09c	0.00959101495729469
189	0x3f6cff458aa0416a	0.0035396917564939805
190	0x3f86bc96cc2ae0fa	0.011101892572114459
191	0x3f99fb7782a89189	0.0253733323571779
192	0x3f67e514c0ed849f	0.002916851553366031
193	0x3f91568671f94409	0.01693162985458588
194	0x3f94de35219053ac	0.02037890450818096
195	0xbf91364f2c8e65b7	-0.016808735937592547
196	0xbf9844f03f261e7f	-0.023700479368498947
197	0xbfa0cbd4e19c030f	-0.03280511144658337
198	0x3f9900e32eeb577c	0.02441744779465392
199	0xbf8f04f9aa6ea015	-0.015146208299327705
