ffn_w1.npy (npy, 1728 bytes, 1 tensors)

array f8 [10, 20]
000000 45 23 74 31 73 73 95 bf ce a6 02 c9 f4 df a4 3f
       -0.020948219197666224 0.040771150147816834
000010 30 ec dc d7 b4 00 61 bf 4c 48 27 31 a1 dd 7d 3f
       -0.0020755321592367468 0.007291440635940626
000020 b6 35 76 d4 e9 df 54 bf 67 ee b8 39 d2 e1 85 bf
       -0.0012740882392309034 -0.010684625994250753
000030 27 07 0e 98 a7 de a9 3f 9a 63 25 03 db a2 87 3f
       0.05052684527528433 0.011541090997228488
000040 49 1b 60 f7 cb d3 88 3f 84 d9 e3 b6 fe 03 9c bf
       0.01212272022895679 -0.027358989632341416
000050 49 c9 36 1b f7 48 9d 3f 00 cd c1 a1 be 5f 8d 3f
       0.02859865287400368 0.014342774688179905
000060 d1 06 59 b6 7d 55 73 3f 8a 53 3c ad 1a 0d 7b 3f
       0.004720202506690988 0.00660429401957153
000070 d2 bc 7e de b2 ee a1 3f 38 dc 97 68 eb a7 8c 3f
       0.035024251613657534 0.013992156152182841
000080 57 52 23 1e 94 82 8f 3f 6d 28 69 71 e9 2b 8f bf
       0.015385777635324489 -0.015220474027177933
000090 14 0a bf 3a cf 00 91 bf 7e da 03 c6 9d 7e 4e 3f
       -0.016604650459848783 0.0009306211832427883
0000a0 6a 5d 80 06 c1 ff 50 3f 04 51 86 21 96 c0 93 3f
       0.001037539006579847 0.019289346500571916
0000b0 40 d6 39 52 2e 94 7f 3f 91 48 74 a6 ca c9 9c 3f
       0.007709675733726551 0.028113523873863292
0000c0 e8 64 ea 7d 7d 20 60 bf b5 83 05 26 8f 4d 4d 3f
       -0.0019686175358627385 0.0008942555396452752
0000d0 27 3b d6 55 64 71 8a bf 7c 88 8c 9b 36 79 79 3f
       -0.012911590451748346 0.006219113646496518
0000e0 31 f8 28 a7 70 5d 81 bf 1c 24 d6 52 e3 fc 83 bf
       -0.008479004002875797 -0.009759689298123368
0000f0 f3 14 1a 5d 9b 79 7c 3f b2 72 05 e7 29 3c a2 3f
       0.006951910867092115 0.035615262461509714
000100 f2 3b 70 c0 60 9d 69 bf c4 98 63 b5 da 92 98 3f
       -0.0031268014604459654 0.02399770481215381
000110 a3 05 a4 37 9c b1 aa bf f6 f8 eb d1 50 4b 5f bf
       -0.05213630847175501 -0.001910046506679528
000120 83 4f c5 20 0f 7d 79 bf 89 5c 57 8b 21 98 42 3f
       -0.006222781270782354 0.0005674518385444675
000130 0d 46 b9 4f 56 f5 5b bf 16 bd 20 60 87 13 84 3f
       -0.0017064421544045222 0.009802873250093696
000140 fa d8 8d a8 3c 31 a0 bf 08 0e 2f 38 1f f6 88 bf
       -0.03162564809365338 -0.012188190366834398
000150 0d 01 8b 3c e8 18 7f 3f f2 25 e9 b9 b5 00 9f bf
       0.007592112706959375 -0.030276145431605124
000160 05 2d 0b 9c 7f 58 97 3f f5 65 8e 64 cc 74 81 3f
       0.022798532389782817 0.008523556536419877
000170 fe 2d 93 e6 7b a7 90 bf bc 8f 8a 63 45 6e 90 bf
       -0.016263900707413008 -0.016045650673404785
000180 92 c1 97 70 c5 f7 74 3f 35 48 a3 1d 1d 11 93 bf
       0.005119105576781984 -0.018619971212338455
000190 ed 45 f6 44 83 97 90 3f 24 e4 01 ae 46 b2 8e bf
       0.016202975353342742 -0.01498847216156391
0001a0 7e 0a 3e 10 52 d3 2c 3f 63 64 42 9e d0 21 9e bf
       0.00021992089034135806 -0.029425868663200194
0001b0 fe 39 79 bf fc 50 9e bf 5f 8e 7f b5 38 32 84 bf
       -0.029605817019097806 -0.00986141494644882
0001c0 fe 36 8e 14 7c 44 ab bf 11 8b d5 35 e3 83 78 3f
       -0.05325687170907932 0.005985152759737004
0001d0 41 52 79 dc 6c 62 94 3f 8e d4 31 46 9e 2a 83 bf
       0.019906712490710857 -0.00935863162724562
0001e0 1e 86 bd 76 19 42 8b 3f d9 ec 4e 86 5b 42 84 3f
       0.013309668480078914 0.009892191921485981
0001f0 d2 ad 94 62 b4 22 52 bf 54 7d 1f 45 4d ff 70 3f
       -0.0011069070408876625 0.0041497248039087005
000200 d2 f3 74 91 4f 56 ad be 03 bf 62 07 9b 8d 51 bf
       -8.743152503442627e-07 -0.0010713590577715044
000210 41 0b 6e 5f bf 3b 93 bf 69 e7 0c 16 13 7c 66 bf
       -0.018782606315208786 -0.0027447102333128426
000220 fb 63 3a e4 b2 ba 9a 3f 68 e6 60 01 48 82 79 bf
       0.026102824382721917 -0.006227761527094346
000230 bf ce 99 d9 f9 e6 84 3f 67 48 8a d9 78 68 91 bf
       0.010206176713132618 -0.017000091817472553
000240 ed 0f d8 3d a5 3d 9c bf 8e c1 d4 f2 73 ae 77 3f
       -0.027578908824594284 0.0057816056480962785
000250 3e ae 1a f9 e6 e6 8a bf 51 b4 0b 26 a7 cb 82 bf
       -0.013135723568971188 -0.009177499626696813
000260 c9 ae cb 80 10 ba 94 3f 4a 0e 59 f9 91 20 92 3f
       0.020241029606878045 0.017702370494829624
000270 18 26 1a ad eb cd 85 3f 1a b0 95 7d b3 47 8f 3f
       0.010646668644102283 0.015273477811852888
000280 a8 6f 08 4c 3a 9d a4 bf 5a 4d 9c 31 bb 94 a3 bf
       -0.040262052327505515 -0.03824410420034026
000290 c8 97 69 55 31 2a 7c bf 52 a7 d8 21 4d 10 6b 3f
       -0.006876175603428743 0.0033036715019720076
0002a0 d1 43 1b 41 c1 8c 9c 3f 40 80 94 8b 9c 91 95 3f
       0.027880687330995194 0.021063276309291945
0002b0 e9 90 3b 07 c7 6f 7d bf 05 36 41 51 e2 f2 76 3f
       -0.0071866774121398325 0.005602726032589715
0002c0 1e 3d 58 91 a6 cf 91 bf 31 58 53 33 93 cb 80 3f
       -0.017393686886916553 0.008200788501579211
0002d0 9f 91 bc 5d 13 e2 81 3f 99 ce 69 ee f8 0b a0 bf
       0.008731986330140993 -0.031341342070757956
0002e0 9a ef ea c6 86 75 90 3f 88 fa 0d d2 a2 e2 63 3f
       0.01607332791421321 0.0024274044121164774
0002f0 ec ec 96 0f a0 08 7d 3f 3a 61 b2 40 48 05 df 3e
       0.007088303792836852 7.395895418892395e-06
000300 ad 11 89 5f 42 87 98 bf 67 3b 2c ed 86 d6 94 3f
       -0.02395347316839185 0.020349605775716564
000310 f0 11 ab 27 77 e2 8d 3f 4d 32 92 f1 b3 50 8c 3f
       0.014592104814604462 0.013825803575195606
000320 7c 68 c8 24 07 af 98 bf cc fd 55 36 6e ec a9 3f
       -0.02410517847065606 0.050631946690369384
000330 eb 68 02 c1 b4 7d a2 3f 3e 9c 46 ad 01 b1 a9 3f
       0.036115311203689014 0.05017857780631417
000340 fc 7c 80 ef d3 7c 92 3f 38 a8 19 09 9a 20 95 3f
       0.0180543055467952 0.02063217812102655
000350 ca 61 a4 8e 1c 0f 8c 3f 3f af b9 c9 ef 16 95 bf
       0.013700697997180895 -0.020595308959328703
000360 e5 29 59 b4 2d 1d 81 bf 75 88 81 b0 5a ee 92 bf
       -0.00835643488530464 -0.01848737432772692
000370 35 b8 ba 72 f5 c4 5c 3f 65 6e 8b 90 07 b0 a2 3f
       0.0017559430079177156 0.03649924888096904
000380 54 2d cb d5 30 8b 72 3f 01 ff e4 74 50 12 91 bf
       0.0045272739050220175 -0.01667142594783311
000390 d8 49 6c 40 bb 18 70 3f 4f 20 d7 e4 e5 12 96 bf
       0.003929835750357623 -0.021556465236955365
0003a0 05 66 43 b9 16 8f a3 bf 22 93 04 cb b7 45 a0 bf
       -0.03820105563654511 -0.03178190568204388
0003b0 37 02 cc 4f ae 88 87 3f 17 1c 61 66 f9 e5 56 bf
       0.01149116688748207 -0.0013976035638891876
0003c0 25 e1 ec 4c 43 75 a2 bf 94 21 02 a9 b7 60 40 3f
       -0.036050894871040996 0.0004998108652368044
0003d0 a0 c7 92 3b cb a1 a8 bf 3f 5e 12 1a 7a 0e 93 3f
       -0.04810938932622766 0.018609912720960017
0003e0 b3 01 ca 14 c2 44 35 3f e1 cf 97 aa e2 a5 1f bf
       0.0003245328742096612 -0.0001207275005510873
0003f0 b6 49 b4 52 00 66 90 bf 84 00 c4 22 1a b8 7c bf
       -0.016014103935114675 -0.007011510937673052
000400 e8 77 6e 7d 34 85 a0 3f af 9b 07 34 9a 4f 93 bf
       0.03226627379557084 -0.018858346391336486
000410 50 06 a4 47 aa 15 7f bf 10 5e d4 dc cd 68 9a 3f
       -0.007589020877504973 0.025790421107641903
000420 ba 46 81 75 16 a2 94 3f cf 11 4b 7b 65 d1 86 3f
       0.020149565622267863 0.01114157946120367
000430 65 8b c5 35 fe 5d 92 3f a5 89 ae e1 2d 35 a7 3f
       0.017936679870568812 0.04532760028748165
000440 a5 0c da b2 76 23 90 bf 5b 37 84 73 b6 d8 a0 3f
       -0.015760283151860083 0.03290338668931155
000450 5c ae bc 5a 57 94 89 bf e2 73 2b c1 23 cc 93 3f
       -0.01248996968896348 0.019333418526787834
000460 23 e6 96 79 31 f0 8f 3f 7b a4 e0 f4 43 78 96 bf
       0.015594851039042961 -0.021943151303422042
000470 80 4b db ff 61 8c 9f 3f 4e 42 ea 07 57 cd 94 bf
       0.03080895542263873 -0.020314559801194947
000480 0a d5 72 02 f7 a9 97 3f a4 97 85 9f 45 0d 73 bf
       0.023109302067230643 -0.004651329007492242
000490 d0 a4 de 70 49 b9 88 3f 5a 37 ce ee c9 ae 94 3f
       0.012072156674394569 0.02019801635793015
0004a0 31 84 2f 82 2d 87 2c bf 0c bc d0 4c d8 c4 82 bf
       -0.00021765165828838273 -0.009164514393061672
0004b0 29 bf 41 a2 f3 76 95 bf 0a 15 0b b5 e7 21 a3 3f
       -0.020961577204103996 0.03736805043221565
0004c0 77 e9 ed 46 16 fc 83 bf 9c 6d 83 98 09 ac 88 bf
       -0.009758161582557474 -0.012046885458793004
0004d0 1e 16 5f ef 67 9a 70 3f 7a 08 51 ee b9 f2 8f 3f
       0.0040535030329400795 0.015599682412475103
0004e0 5e 6f 8d a1 a1 b0 8c bf 72 36 23 11 2f 1e 7b 3f
       -0.01400877260464711 0.006620582442520383
0004f0 a9 e8 36 4d a6 31 9d 3f 6a ae e1 bb 2b e2 82 bf
       0.028509710753248516 -0.009220449134054582
000500 e8 e0 ec 77 b5 22 8e bf 63 4d f2 a8 2a 1f 52 bf
       -0.014714639398889465 -0.0011060635186240445
000510 33 9a c7 1b 7c e5 75 3f a5 42 82 3d 6e 8c 7a bf
       0.005345806883701831 -0.006481581331300977
000520 c8 1c 57 b7 8d 70 91 bf db b4 13 96 98 80 a6 bf
       -0.017030920329287352 -0.04394985992426267
000530 b1 81 90 4f be db 91 bf b1 2e d4 9c 7a 15 3c bf
       -0.017439817053060917 -0.0004285263392638057
000540 5a ae 84 b8 85 09 74 bf a4 f8 b7 37 94 3c 8f bf
       -0.004891893717551799 -0.01525226397552288
000550 91 e9 ac 69 d9 14 90 bf db ac 96 09 03 50 95 bf
       -0.01570453364841168 -0.020813033542862108
000560 b3 44 0b 7f 3c 5a a0 bf 7a 21 fa 25 89 5e 80 bf
       -0.03193844843702589 -0.007992812606304456
000570 98 0d 60 2d a3 58 71 bf cc f1 6f 19 35 ba 8d bf
       -0.004234921847458571 -0.014515318716797142
000580 ce 9e 2e aa 18 5a 81 bf 9b ca 4a 1e 06 46 7d bf
       -0.008472626393838747 -0.007146858119699086
000590 2a 94 6e 0c 11 26 85 3f c8 06 03 03 48 89 84 bf
       0.010326512519734338 -0.010027468292153854
0005a0 1d 18 92 5e 6d 4a 63 3f fa 24 b0 b1 df b2 90 bf
       0.00235482560362056 -0.01630734941503407
0005b0 80 20 3e 79 ae 4b 82 3f 7e 0a d3 4f 00 05 9a 3f
       0.008933413577111304 0.0254097031327185
0005c0 73 f3 eb 4b 0a e1 a1 3f e8 a0 a7 e8 ea 53 62 bf
       0.034920045631202344 -0.0022372806608822356
0005d0 c9 9b 11 a0 87 d8 7e 3f a7 18 e7 38 89 58 72 bf
       0.007530717645841408 -0.004478965782658196
0005e0 d5 9e 21 bb 6c 95 83 bf f3 c3 fa 2b bf ed 85 bf
       -0.009562348805232027 -0.010707372216844013
0005f0 14 ac ff 0f 57 23 73 bf 12 6a 89 80 fb 76 89 bf
       -0.004672374809142194 -0.012433972225314203
000600 a7 e2 77 55 f0 cf 81 3f 7a e5 fd 76 d3 e5 7e 3f
       0.008697393043790426 0.007543397936268343
000610 80 9e 46 30 b8 84 7b 3f 38 87 62 6a a5 1b 96 bf
       0.006718368040686706 -0.021589836710183635
000620 2d 9a 7d 6f 71 54 89 3f 5b c2 47 dc d2 5d 98 bf
       0.012368093695568206 -0.023795408911555387
000630 59 ee e5 0c ce 5f 90 bf ea b7 1c 8b 39 04 93 bf
       -0.015990466630212505 -0.018570803752645228
