ffn_w1.npy (npy, 1728 bytes, 1 tensors)

array f8 [10, 20]
000000 4c 67 e2 2f 6a e3 80 bf c0 f4 e1 67 5b f3 65 bf
       -0.008246259294810841 -0.002679518248497631
000010 88 d2 35 89 16 3b 53 bf 6d e0 13 da c9 8c 87 bf
       -0.0011737556531815924 -0.011499001472188486
000020 80 8e 39 5c a5 76 93 bf c8 23 34 db ea 2c 6c 3f
       -0.019007285837132404 0.0034393870388424765
000030 e4 bd 77 96 dc a3 78 3f dc a7 83 ce fd e2 75 bf
       0.006015645667033696 -0.0053434290241316205
000040 84 a5 34 7e d1 10 7b 3f a5 59 39 99 1c f3 62 bf
       0.006607836086268807 -0.002313190323359043
000050 8d d7 6d 74 6f fb 89 bf 97 61 c3 62 76 8b 9f 3f
       -0.012686606159814118 0.030805444505718062
000060 6b 09 2e 9f c3 85 91 3f 24 2a b3 2c 47 29 91 bf
       0.017111832228246564 -0.016759025672209785
000070 e4 e0 bf 9b 3c c8 5d bf 27 b1 0c 5b 99 e1 a6 3f
       -0.0018177596930382617 0.04468993412442251
000080 84 d1 60 75 8d c2 64 bf 2c 8c d6 5a 51 20 84 bf
       -0.0025341761456962337 -0.009827266297014324
000090 13 51 a0 b2 05 76 89 bf 84 38 ba 4b 17 dc 95 3f
       -0.01243214084028258 0.021347393033061227
0000a0 c4 82 0a a0 e2 fa 9a 3f 78 53 d2 3d 65 4d 99 bf
       0.026347676294451686 -0.024709302805223626
0000b0 b6 2e 90 a9 79 eb 70 bf b5 9d e5 66 c2 b3 79 bf
       -0.0041308166919510805 -0.006274947531302135
0000c0 8c e7 94 f3 c5 b1 a1 bf 08 ab 31 9f 29 e3 81 bf
       -0.03455942724617875 -0.008734059496608562
0000d0 87 aa 79 fa c9 f6 92 bf f5 1a 83 fc 57 1a 99 3f
       -0.018519550240322615 0.02451455572807056
0000e0 5f f6 51 25 f8 6a 95 3f 20 ce 95 88 67 27 96 3f
       0.020915868070451867 0.02163469096326598
0000f0 b7 84 1a ba 5e 1a 73 bf f6 e9 b1 46 a5 d9 70 3f
       -0.004663820292678248 0.004113813028306703
000100 e9 d4 29 e3 40 1b 69 3f 55 eb 89 76 6d da 96 bf
       0.0030647532778923414 -0.022317610130339578
000110 f1 74 33 b8 1d f4 8a bf 1c c6 94 78 76 12 88 3f
       -0.013160926994198326 0.011753964953274347
000120 3b c4 b8 d3 bf 30 78 bf 32 ac 75 b4 57 eb 98 3f
       -0.00590586597859138 0.024335260762580364
000130 55 58 58 61 12 b9 a4 bf 93 cc 01 82 14 5c 96 3f
       -0.04047448576254512 0.021835632739066368
000140 e0 1f 05 85 46 ac 9a 3f d5 d8 1c be 0d 9e 85 3f
       0.02604780375375515 0.010555369724539446
000150 aa 05 a7 1f 7f 4a 7a bf 0b ba e7 73 3d cd 72 bf
       -0.006418701721885448 -0.004590263414213878
000160 1e 95 a4 b1 8b f2 40 3f 96 36 d2 01 06 67 a5 3f
       0.0005171949481207782 0.041801631662662306
000170 ad 88 55 9b bf 91 95 bf ac 29 9e cd fa b8 91 bf
       -0.021063798766939246 -0.017307204055706002
000180 f8 69 ff 22 47 dc 86 bf bf ce af 6a f5 cf 80 3f
       -0.01116233420900857 0.008209149664231473
000190 ee 81 e5 07 b9 e6 6f 3f 92 fe ba 24 16 e2 9d 3f
       0.0038941968806940263 0.029182764045570915
0001a0 e7 9b f6 9a 77 67 8c bf f1 9b 7c fe 72 4e 91 bf
       -0.013869223038296808 -0.01690082243217356
0001b0 8e 63 c2 81 81 71 64 3f 1f ce 97 ea 9f 61 7e bf
       0.0024955300742246006 -0.0074173208936261495
0001c0 d1 a7 2a 86 54 90 72 3f 3f d8 f4 aa 50 2d 83 bf
       0.004532175228328898 -0.009363775460411115
0001d0 92 ae fe 61 a7 2a 87 bf 15 6c ab df 4d 04 7e 3f
       -0.011311824491563347 0.007328323549439926
0001e0 d0 3c 96 90 d1 a6 99 bf e1 25 db 38 52 a0 94 3f
       -0.0250504250048465 0.020142826767175385
0001f0 70 de 87 82 0a a2 58 bf 1f 49 f9 8c 51 70 8d 3f
       -0.0015034773479082573 0.01437438689678011
000200 96 9d 4d a4 9a 5d 8e 3f b8 79 0e 65 48 9d a1 bf
       0.014826973094115552 -0.03440309747314835
000210 91 3d fc 0d 06 5a 78 bf 63 21 8e 6d 53 e4 95 bf
       -0.005945228243731463 -0.021378806649893344
000220 b7 29 f8 e5 1f cf 75 3f 58 f8 45 8a 25 36 9b 3f
       0.005324482538990364 0.026573740543874486
000230 be 32 5b 09 f8 0c 6b 3f 5a 5e 4c 59 c8 84 65 3f
       0.0033020824874710744 0.0026267922461434114
000240 79 de 96 0b af bb 80 3f 3a 18 2e 29 0a de 97 bf
       0.008170478383234358 -0.023307951701575493
000250 9e 9f eb 55 5a 44 13 bf a3 0e b9 54 da b5 98 3f
       -7.349778523357698e-05 0.02413121358973903
000260 5a 81 e0 dd 2e 23 59 3f ae d4 17 ba b2 db 48 3f
       0.0015342672045407153 0.0007586119356221188
000270 0b a0 ad 2c 3b 44 83 3f e3 51 dd 56 fa 24 86 bf
       0.009407484341593905 -0.010812717224021056
000280 3e f7 77 f2 8b e1 88 3f e7 db 82 61 0b a6 7c 3f
       0.012148946129851287 0.00699428983369097
000290 3b cf bb df 31 7b 72 3f 68 18 9a 23 fa 69 a2 3f
       0.004512018985895423 0.035964791150988884
0002a0 3e c4 8b 2f 9b d7 8d 3f 0c 61 c5 41 3e 4e 8b 3f
       0.014571392429816862 0.013332830793544768
0002b0 20 19 ef 29 cb c5 99 3f 42 a8 6c 02 9b 50 90 bf
       0.025168585237929197 -0.015932485602356168
0002c0 b3 4e 52 e8 67 94 92 3f a8 eb 1e b8 37 f8 a4 3f
       0.01814424853780734 0.04095625040596157
0002d0 59 91 36 61 74 d7 71 bf 21 de 41 45 ad e7 95 bf
       -0.004355864151339561 -0.021391589500551093
0002e0 ae 31 de 78 07 53 a8 bf 43 0a e3 e8 51 f6 7d bf
       -0.047508462433231244 -0.0073149871443001805
0002f0 07 52 3f 1a a2 97 92 bf fc 67 78 5f 3e ef 6c 3f
       -0.01815655980301936 0.0035320490094479223
000300 e4 89 d2 92 07 5e 86 3f 10 08 87 6b ca b3 92 bf
       0.010921534698643272 -0.018263972104030357
000310 c4 21 66 46 75 85 9a bf fb ef 60 7d ed 1c 78 bf
       -0.025899727269946174 -0.005886962599159769
000320 df 90 45 fd 26 f4 82 bf c0 23 d3 87 35 b4 9b bf
       -0.009254746059646766 -0.027054630675397595
000330 f4 e8 02 2e 22 24 94 bf 73 5e 7c 2b 15 52 95 bf
       -0.019669088419257144 -0.020820933131373964
000340 80 13 bb 0b c2 53 88 bf be c2 4f 26 5a 3a 77 bf
       -0.011878505690569474 -0.005670883318985074
000350 7a af 3f 69 d7 2c 90 3f f8 35 21 be e1 0b a2 3f
       0.01579605655562897 0.03524690099639466
000360 c8 8c b4 64 7b c0 72 bf 98 b1 df 4a c0 6e 90 3f
       -0.004578096394911309 0.01604748208039694
000370 61 cc 5d 0f 47 02 5d bf c3 35 33 db 52 6f 9f bf
       -0.0017705625482136377 -0.030698103550823818
000380 d2 d6 89 6c 0b f7 86 3f d5 52 5a 3b e4 c2 a2 3f
       0.01121338772757544 0.03664315437814528
000390 5c 2d 1e a6 80 49 98 bf ce f8 10 aa 29 2e 61 bf
       -0.023717889918356647 -0.002097207427623627
0003a0 91 4e 6c 7a fd 49 63 3f ec a7 6b 38 5d e4 96 3f
       0.0023546171900166797 0.022355515068660667
0003b0 da 4d bd cf 48 51 93 bf f2 d6 14 20 67 96 9a bf
       -0.018864762954150162 -0.02596436627683025
0003c0 15 2f f2 a4 f3 bb 9e bf b7 93 f9 c7 c4 bb 9c 3f
       -0.030013853971964616 0.028060030656337633
0003d0 fb 86 61 fe 50 85 8b 3f ac 29 1d c1 ce 4f 51 3f
       0.013437874568072319 0.001056625278993732
0003e0 56 e4 1e ff 40 cf 93 3f da 32 97 40 e9 72 91 bf
       0.019345298358278327 -0.017039913718508305
0003f0 88 de de 95 ce c4 39 3f da 25 56 63 5a 0b 4f 3f
       0.0003932003363575705 0.0009473983142679846
000400 cf 6c 47 43 a9 9a 96 bf f3 7d 66 9e b8 8f 96 bf
       -0.022074360591301464 -0.022032627742758448
000410 40 b4 54 d2 cf 39 84 3f 4f ac 56 93 8c 14 91 bf
       0.009875892263688013 -0.01667995118411297
000420 8a d9 97 bb 6b b4 87 3f 0d 55 0e 9c f3 e2 9b bf
       0.011574594175709736 -0.02723293914785523
000430 f8 09 48 0c f6 bf a0 bf 4a ca 4e b1 92 10 a3 bf
       -0.0327145471565195 -0.0372358170929102
000440 c4 99 ab 9f c5 59 90 3f 6a 62 0f 43 7a a8 7b bf
       0.015967452879431368 -0.006752469621425486
000450 64 1d da 02 fa 1b 7e bf 95 4c 89 f7 b0 76 a5 bf
       -0.007350899320619806 -0.04192116758044865
000460 bb 5d 7b c0 d0 f9 8a bf 33 1f 03 40 b5 29 5b bf
       -0.013171797632295026 -0.0016578931827541776
000470 b1 b2 b9 f2 3b 54 6c 3f 1e bf ad c2 a9 b4 95 3f
       0.0034581347334124647 0.02119698763584587
000480 92 1d e1 05 ea c8 a9 3f 58 79 2f a8 ee fa 73 bf
       0.05036097833413601 -0.004877979520612939
000490 f7 2c fb 50 03 a3 98 3f df d8 7c d6 3e 36 a7 3f
       0.02405934507150406 0.04533573501832832
0004a0 90 9f 74 98 11 7c 6f 3f 17 62 37 d8 1d 34 98 3f
       0.003843340269344915 0.023636308976934552
0004b0 0c fc 64 6b ef 51 81 3f ce dd d4 6a 84 a1 59 3f
       0.008457060303610951 0.0015643876207159682
0004c0 b6 39 b7 6d 2b 6e 8e 3f a0 04 f6 59 58 16 8d 3f
       0.014858569417722883 0.014202776189224331
0004d0 88 d6 2f 63 79 2e 6f 3f cf b6 d6 b5 2d e8 a2 3f
       0.0038063402985198426 0.03692763180457136
0004e0 55 d3 8e 98 fc f8 90 3f 9e 4d 6e e6 de ff 69 3f
       0.01657480889453507 0.0031737664716701827
0004f0 e5 46 3f f7 18 82 a3 bf b1 c1 a4 8d 5a 90 86 3f
       -0.03810194032815931 0.011017520377749475
000500 91 97 3c 35 3c 28 6e bf 6d 0f 0e df 95 7b 99 bf
       -0.0036812950073849622 -0.024885503520195074
000510 57 bf b1 1d 76 85 a2 3f 70 56 ed 2b a1 f4 6c 3f
       0.0361744796035725 0.0035346172220823077
000520 56 a7 92 b1 5f 51 a3 3f 0b 46 5d 61 6a 5e 90 bf
       0.037730207849860406 -0.01598516673340637
000530 15 85 16 07 2b 5a a3 bf 71 03 14 98 80 0c 7f bf
       -0.03779730283282327 -0.007580282516983825
000540 c3 c6 10 e1 2c 72 5d bf fd c8 76 6a ba ac 90 bf
       -0.0017972410462445 -0.01628390574269022
000550 48 ec 33 a1 d7 a7 38 bf 25 22 8b 0a cb c9 70 3f
       -0.00037621511837899026 0.004098694924956213
000560 fc ac 60 45 ac cb 50 bf 3d f7 62 46 31 33 90 3f
       -0.0010251219114348334 0.01582028381448385
000570 9c f9 be c5 df f6 62 3f 17 2d 80 34 ab 84 88 bf
       0.0023149843745777342 -0.011971795596784447
000580 f6 eb 7f bc 09 eb a0 3f 2f b3 5a de 88 89 a0 3f
       0.03304319787999781 0.03229930605207298
000590 e5 fa 0f 8f 57 8f 6b bf 37 0f b4 71 20 9a 87 3f
       -0.0033642492421671493 0.011524442167235456
0005a0 02 4b 2f 4c 18 68 83 3f 4f f6 6b 55 74 90 91 bf
       0.009475889039014532 -0.017152612413147413
0005b0 6f b8 7c 40 87 91 60 3f 3b 15 b7 17 3b ad 97 3f
       0.002022518314240655 0.023121760675868002
0005c0 fb 45 62 1f 5c 5c 7c 3f 9b 03 e4 95 9b 00 98 bf
       0.006924018720512399 -0.023439818404770923
0005d0 33 39 98 4f 9d 3d 7c 3f f1 5e 44 b5 47 f3 91 3f
       0.006894697662131843 0.017529602469124
0005e0 03 e7 fd 35 3b 36 9b bf 48 b3 2a 5a 29 e3 99 3f
       -0.026574063463590935 0.025280614975304233
0005f0 3a 6d f0 50 76 c2 78 bf 88 63 f0 49 32 c0 94 3f
       -0.006044828579457923 0.020264421236877023
000600 32 91 d8 ae 12 a1 2a 3f 95 6c 66 ac 7c d1 90 3f
       0.00020316460670345146 0.016424129507509894
000610 73 e7 48 a2 51 75 91 bf 0e d2 0c 69 96 57 98 3f
       -0.017049098520352367 0.023771619951007898
000620 c0 d2 4d 7d 50 1a 87 bf b7 9b 98 92 d9 73 8f 3f
       -0.011280659507727164 0.015357684885271767
000630 8c e1 f2 b8 34 2e 85 bf 33 70 c3 9b 46 1f 76 3f
       -0.010342037100017597 0.005400920690785726
